…
e per UNet block\\n  block_out_channels=(32, 64, 64), # Roughly matching our basic unet example\\n  down_block_types=( \\n    \\\"DownBlock2D\\\",        # a regular ResNet downsampling block\\n    \\\"AttnDownBlock2D\\\",    # a ResNet downsampling block w/ spatial self-attention\\n    \\\"AttnDownBlock2D\\\",\\n  ), \\n  up_block_types=(\\n    \\\"AttnUpBlock2D\\\", \\n    \\\"AttnUpBlock2D\\\",      # a ResNet upsampling block with spatial self-attention\\n    \\\"UpBlock2D\\\",          # a regular ResNet upsampling block\\n  ),\\n)\\nprint(model)\\n\\n```\\n```\\nUNet2DModel(\\n  (conv_in): Conv2d(1, 32, kernel_size=(3, 3), stride=(1, 1), padding=(1, 1))\\n  (time_proj): Timesteps()\\n  (time_embedding): TimestepEmbedding(\\n    (linear_1): Linear(in_features=32, out_features=128, bias=True)\\n    (act): SiLU()\\n    (linear_2): Linear(in_features=128, out_features=128, bias=True)\\n  )\\n  (down_blocks): ModuleList(\\n    (0): DownBlock2D(\\n      (resnets): ModuleList(\\n        (0): ResnetBlock2D(\\n          (norm1): GroupNorm(32, 32, eps=1e-05, affine=True)\\n          (conv1): Conv2d(32, 32, kernel_size=(3, 3), stride=(1, 1), padding=(1, 1))\\n          (time_emb_proj): Linear(in_features=128, out_features=32, bias=True)\\n          (norm2): GroupNorm(32, 32, eps=1e-05, affine=True)\\n          (dropout): Dropout(p=0.0, inplace=False)\\n          (conv2): Conv2d(32, 32, kernel_size=(3, 3), stride=(1, 1), padding=(1, 1))\\n          (nonlinearity): SiLU()\\n        )\\n        (1): ResnetBlock2D(\\n          (norm1): GroupNorm(32, 32, eps=1e-05, affine=True)\\n          (conv1): Conv2d(32, 32, kernel_size=(3, 3), stride=(1, 1), padding=(1, 1))\\n          (time_emb_proj): Linear(in_features=128, out_features=32, bias=True)\\n          (norm2): GroupNorm(32, 32, eps=1e-05, affine=True)\\n          (dropout): Dropout(p=0.0, inplace=False)\\n          (conv2): Conv2d(32, 32, kernel_size=(3, 3), stride=(1, 1), padding=(1, 1))\\n          (nonlinearity): SiLU()\\n        )\\n      )\\n      (downsamplers): ModuleList(\\n        (0): Downsample2D(\\n          (conv): Conv2d(32, 32, kernel_size=(3, 3), stride=(2, 2), padding=(1, 1))\\n        )\\n      )\\n    )\\n    (1): AttnDownBlock2D(\\n      (attentions): ModuleList(\\n        (0): AttentionBlock(\\n          (group_norm): GroupNorm(32, 64, eps=1e-05, affine=True)\\n          (query): Linear(in_features=64, out_features=64, bias=True)\\n          (key): Linear(in_features=64, out_features=64, bias=True)\\n          (value): Linear(in_features=64, out_features=64, bias=True)\\n          (proj_attn): Linear(in_features=64, out_features=64, bias=True)\\n        )\\n        (1): AttentionBlock(\\n          (group_norm): GroupNorm(32, 64, eps=1e-05, affine=True)\\n          (query): Linear(in_features=64, out_features=64, bias=True)\\n          (key): Linear(in_features=64, out_features=64, bias=True)\\n          (value): Linear(in_features=64, out_features=64, bias=True)\\n          (proj_attn): Linear(in_features=64, out_features=64, bias=True)\\n        )\\n      )\\n      (resnets): ModuleList(\\n        (0): ResnetBlock2D(\\n          (norm1): GroupNorm(32, 32, eps=1e-05, affine=True)\\n          (conv1): Conv2d(32, 64, kernel_size=(3, 3), stride=(1, 1), padding=(1, 1))\\n          (time_emb_proj): Linear(in_features=128, out_features=64, bias=True)\\n          (norm2): GroupNorm(32, 64, eps=1e-05, affine=True)\\n          (dropout): Dropout(p=0.0, inplace=False)\\n          (conv2): Conv2d(64, 64, kernel_size=(3, 3), stride=(1, 1), padding=(1, 1))\\n          (nonlinearity): SiLU()\\n          (conv_shortcut): Conv2d(32, 64, kernel_size=(1, 1), stride=(1, 1))\\n        )\\n        (1): ResnetBlock2D(\\n          (norm1): GroupNorm(32, 64, eps=1e-05, affine=True)\\n          (conv1): Conv2d(64, 64, kernel_size=(3, 3), stride=(1, 1), padding=(1, 1))\\n          (time_emb_proj): Linear(in_features=128, out_features=64, bias=True)\\n          (norm2): GroupNorm(32, 64, eps=1e-05, affine=True)\\n          (dropout): Dropout(p=0.0, inplace=False)\\n          (conv2): Conv2d(64, 64, kernel_size=(3, 3), stride=(1, 1), padding=(1, 1))\\n          (nonlinearity): SiLU()\\n        )\\n      )\\n      (downsamplers): ModuleList(\\n        (0): Downsample2D(\\n          (conv): Conv2d(64, 64, kernel_size=(3, 3), stride=(2, 2), padding=(1, 1))\\n        )\\n      )\\n    )\\n    (2): AttnDownBlock2D(\\n      (attentions): ModuleList(\\n        (0): AttentionBlock(\\n          (group_norm): GroupNorm(32, 64, eps=1e-05, affine=True)\\n          (query): Linear(in_features=64, out_features=64, bias=True)\\n          (key): Linear(in_features=64, out_features=64, bias=True)\\n          (value): Linear(in_features=64, out_features=64, bias=True)\\n          (proj_attn): Linear(in_features=64, out_features=64, bias=True)\\n        )\\n        (1): AttentionBlock(\\n          (group_norm): GroupNorm(32, 64, eps=1e-05, affine=True)\\n          (query): Linear(in_features=64, out_features=64, bias=True)\\n          (key): Linear(in_features=64, out_features=64, bias=True)\\n          (value): Linear(in_features=64, out_features=64, bias=True)\\n          (proj_attn): Linear(in_features=64, out_features=64, bias=True)\\n        )\\n      )\\n      (resnets): ModuleList(\\n        (0): ResnetBlock2D(\\n          (norm1): GroupNorm(32, 64, eps=1e-05, affine=True)\\n          (conv1): Conv2d(64, 64, kernel_size=(3, 3), stride=(1, 1), padding=(1, 1))\\n          (time_emb_proj): Linear(in_features=128, out_features=64, bias=True)\\n          (norm2): GroupNorm(32, 64, eps=1e-05, affine=True)\\n          (dropout): Dropout(p=0.0, inplace=False)\\n          (conv2): Conv2d(64, 64, kernel_size=(3, 3), stride=(1, 1), padding=(1, 1))\\n          (nonlinearity): SiLU()\\n        )\\n        (1): ResnetBlock2D(\\n          (norm1): GroupNorm(32, 64, eps=1e-05, affine=True)\\n          (conv1): Conv2d(64, 64, kernel_size=(3, 3), stride=(1, 1), padding=(1, 1))\\n          (time_emb_proj): Linear(in_features=128, out_features=64, bias=True)\\n          (norm2): GroupNorm(32, 64, eps=1e-05, affine=True)\\n          (dropout): Dropout(p=0.0, inplace=False)\\n          (conv2): Conv2d(64, 64, kernel_size=(3, 3), stride=(1, 1), padding=(1, 1))\\n          (nonlinearity): SiLU()\\n        )\\n      )\\n    )\\n  )\\n  (up_blocks): ModuleList(\\n    (0): AttnUpBlock2D(\\n      (attentions): ModuleList(\\n        (0): AttentionBlock(\\n          (group_norm): GroupNorm(32, 64, eps=1e-05, affine=True)\\n          (query): Linear(in_features=64, out_features=64, bias=True)\\n          (key): Linear(in_features=64, out_features=64, bias=True)\\n          (value): Linear(in_features=64, out_features=64, bias=True)\\n          (proj_attn): Linear(in_features=64, out_features=64, bias=True)\\n        )\\n        (1): AttentionBlock(\\n          (group_norm): GroupNorm(32, 64, eps=1e-05, affine=True)\\n          (query): Linear(in_features=64, out_features=64, bias=True)\\n          (key): Linear(in_features=64, out_features=64, bias=True)\\n          (value): Linear(in_features=64, out_features=64, bias=True)\\n          (proj_attn): Linear(in_features=64, out_features=64, bias=True)\\n        )\\n        (2): AttentionBlock(\\n          (group_norm): GroupNorm(32, 64, eps=1e-05, affine=True)\\n          (query): Linear(in_features=64, out_features=64, bias=True)\\n          (key): Linear(in_features=64, out_features=64, bias=True)\\n          (value): Linear(in_features=64, out_features=64, bias=True)\\n          (proj_attn): Linear(in_features=64, out_features=64, bias=True)\\n        )\\n      )\\n      (resnets): ModuleList(\\n        (0): ResnetBlock2D(\\n          (norm1): GroupNorm(32, 128, eps=1e-05, affine=True)\\n          (conv1): Conv2d(128, 64, kernel_size=(3, 3), stride=(1, 1), padding=(1, 1))\\n          (time_emb_proj): Linear(in_features=128, out_features=64, bias=True)\\n          (norm2): GroupNorm(32, 64, eps=1e-05, affine=True)\\n          (dropout): Dropout(p=0.0, inplace=False)\\n          (conv2): Conv2d(64, 64, kernel_size=(3, 3), stride=(1, 1), padding=(1, 1))\\n          (nonlinearity): SiLU()\\n          (conv_shortcut): Conv2d(128, 64, kernel_size=(1, 1), stride=(1, 1))\\n        )\\n        (1): ResnetBlock2D(\\n          (norm1): GroupNorm(32, 128, eps=1e-05, affine=True)\\n          (conv1): Conv2d(128, 64, kernel_size=(3, 3), stride=(1, 1), padding=(1, 1))\\n          (time_emb_proj): Linear(in_features=128, out_features=64, bias=True)\\n          (norm2): GroupNorm(32, 64, eps=1e-05, affine=True)\\n          (dropout): Dropout(p=0.0, inplace=False)\\n          (conv2): Conv2d(64, 64, kernel_size=(3, 3), stride=(1, 1), padding=(1, 1))\\n          (nonlinearity): SiLU()\\n          (conv_shortcut): Conv2d(128, 64, kernel_size=(1, 1), stride=(1, 1))\\n        )\\n        (2): ResnetBlock2D(\\n          (norm1): GroupNorm(32, 128, eps=1e-05, affine=True)\\n          (conv1): Conv2d(128, 64, kernel_size=(3, 3), stride=(1, 1), padding=(1, 1))\\n          (time_emb_proj): Linear(in_features=128, out_features=64, bias=True)\\n          (norm2): GroupNorm(32, 64, eps=1e-05, affine=True)\\n          (dropout): Dropout(p=0.0, inplace=False)\\n          (conv2): Conv2d(64, 64, kernel_size=(3, 3), stride=(1, 1), padding=(1, 1))\\n          (nonlinearity): SiLU()\\n          (conv_shortcut): Conv2d(128, 64, kernel_size=(1, 1), stride=(1, 1))\\n        )\\n      )\\n      (upsamplers): ModuleList(\\n        (0): Upsample2D(\\n          (conv): Conv2d(64, 64, kernel_size=(3, 3), stride=(1, 1), padding=(1, 1))\\n        )\\n      )\\n    )\\n    (1): AttnUpBlock2D(\\n      (attentions): ModuleList(\\n        (0): AttentionBlock(\\n          (group_norm): GroupNorm(32, 64, eps=1e-05, affine=True)\\n          (query): Linear(in_features=64, out_features=64, bias=True)\\n          (key): Linear(in_features=64, out_features=64, bias=True)\\n          (value): Linear(in_features=64, out_features=64, bias=True)\\n          (proj_attn): Linear(in_features=64, out_features=64, bias=True)\\n        )\\n        (1): AttentionBlock(\\n          (group_norm): GroupNorm(32, 64, eps=1e-05, affine=True)\\n          (query): Linear(in_features=64, out_features=64, bias=True)\\n          (key): Linear(in_features=64, out_features=64, bias=True)\\n          (value): Linear(in_features=64, out_features=64, bias=True)\\n          (proj_attn): Linear(in_features=64, out_features=64, bias=True)\\n        )\\n        (2): AttentionBlock(\\n          (group_norm): GroupNorm(32, 64, eps=1e-05, affine=True)\\n          (query): Linear(in_features=64, out_features=64, bias=True)\\n          (key): Linear(in_features=64, out_features=64, bias=True)\\n          (value): Linear(in_features=64, out_features=64, bias=True)\\n          (proj_attn): Linear(in_features=64, out_features=64, bias=True)\\n        )\\n      )\\n      (resnets): ModuleList(\\n        (0): ResnetBlock2D(\\n          (norm1): GroupNorm(32, 128, eps=1e-05, affine=True)\\n          (conv1): Conv2d(128, 64, kernel_size=(3, 3), stride=(1, 1), padding=(1, 1))\\n          (time_emb_proj): Linear(in_features=128, out_features=64, bias=True)\\n          (norm2): GroupNorm(32, 64, eps=1e-05, affine=True)\\n          (dropout): Dropout(p=0.0, inplace=False)\\n          (conv2): Conv2d(64, 64, kernel_size=(3, 3), stride=(1, 1), padding=(1, 1))\\n          (nonlinearity): SiLU()\\n          (conv_shortcut): Conv2d(128, 64, kernel_size=(1, 1), stride=(1, 1))\\n        )\\n        (1): ResnetBlock2D(\\n          (norm1): GroupNorm(32, 128, eps=1e-05, affine=True)\\n          (conv1): Conv2d(128, 64, kernel_size=(3, 3), stride=(1, 1), padding=(1, 1))\\n          (time_emb_proj): Linear(in_features=128, out_features=64, bias=True)\\n          (norm2): GroupNorm(32, 64, eps=1e-05, affine=True)\\n          (dropout): Dropout(p=0.0, inplace=False)\\n          (conv2): Conv2d(64, 64, kernel_size=(3, 3), stride=(1, 1), padding=(1, 1))\\n          (nonlinearity): SiLU()\\n          (conv_shortcut): Conv2d(128, 64, kernel_size=(1, 1), stride=(1, 1))\\n        )\\n        (2): ResnetBlock2D(\\n          (norm1): GroupNorm(32, 96, eps=1e-05, affine=True)\\n          (conv1): Conv2d(96, 64, kernel_size=(3, 3), stride=(1, 1), padding=(1, 1))\\n          (time_emb_proj): Linear(in_features=128, out_features=64, bias=True)\\n          (norm2): GroupNorm(32, 64, eps=1e-05, affine=True)\\n          (dropout): Dropout(p=0.0, inplace=False)\\n          (conv2): Conv2d(64, 64, kernel_size=(3, 3), stride=(1, 1), padding=(1, 1))\\n          (nonlinearity): SiLU()\\n          (conv_shortcut): Conv2d(96, 64, kernel_size=(1, 1), stride=(1, 1))\\n        )\\n      )\\n      (upsamplers): ModuleList(\\n        (0): Upsample2D(\\n          (conv): Conv2d(64, 64, kernel_size=(3, 3), stride=(1, 1), padding=(1, 1))\\n        )\\n      )\\n    )\\n    (2): UpBlock2D(\\n      (resnets): ModuleList(\\n        (0): ResnetBlock2D(\\n          (norm1): GroupNorm(32, 96, eps=1e-05, affine=True)\\n          (conv1): Conv2d(96, 32, kernel_size=(3, 3), stride=(1, 1), padding=(1, 1))\\n          (time_emb_proj): Linear(in_features=128, out_features=32, bias=True)\\n          (norm2): GroupNorm(32, 32, eps=1e-05, affine=True)\\n          (dropout): Dropout(p=0.0, inplace=False)\\n          (conv2): Conv2d(32, 32, kernel_size=(3, 3), stride=(1, 1), padding=(1, 1))\\n          (nonlinearity): SiLU()\\n          (conv_shortcut): Conv2d(96, 32, kernel_size=(1, 1), stride=(1, 1))\\n        )\\n        (1): ResnetBlock2D(\\n          (norm1): GroupNorm(32, 64, eps=1e-05, affine=True)\\n          (conv1): Conv2d(64, 32, kernel_size=(3, 3), stride=(1, 1), padding=(1, 1))\\n          (time_emb_proj): Linear(in_features=128, out_features=32, bias=True)\\n          (norm2): GroupNorm(32, 32, eps=1e-05, affine=True)\\n          (dropout): Dropout(p=0.0, inplace=False)\\n          (conv2): Conv2d(32, 32, kernel_size=(3, 3), stride=(1, 1), padding=(1, 1))\\n          (nonlinearity): SiLU()\\n          (conv_shortcut): Conv2d(64, 32, kernel_size=(1, 1), stride=(1, 1))\\n        )\\n        (2): ResnetBlock2D(\\n          (norm1): GroupNorm(32, 64, eps=1e-05, affine=True)\\n          (conv1): Conv2d(64, 32, kernel_size=(3, 3), stride=(1, 1), padding=(1, 1))\\n          (time_emb_proj): Linear(in_features=128, out_features=32, bias=True)\\n          (norm2): GroupNorm(32, 32, eps=1e-05, affine=True)\\n          (dropout): Dropout(p=0.0, inplace=False)\\n          (conv2): Conv2d(32, 32, kernel_size=(3, 3), stride=(1, 1), padding=(1, 1))\\n          (nonlinearity): SiLU()\\n          (conv_shortcut): Conv2d(64, 32, kernel_size=(1, 1), stride=(1, 1))\\n        )\\n      )\\n    )\\n  )\\n  (mid_block): UNetMidBlock2D(\\n    (attentions): ModuleList(\\n      (0): AttentionBlock(\\n        (group_norm): GroupNorm(32, 64, eps=1e-05, affine=True)\\n        (query): Linear(in_features=64, out_features=64, bias=True)\\n        (key): Linear(in_features=64, out_features=64, bias=True)\\n        (value): Linear(in_features=64, out_features=64, bias=True)\\n        (proj_attn): Linear(in_features=64, out_features=64, bias=True)\\n      )\\n    )\\n    (resnets): ModuleList(\\n      (0): ResnetBlock2D(\\n        (norm1): GroupNorm(32, 64, eps=1e-05, affine=True)\\n        (conv1): Conv2d(64, 64, kernel_size=(3, 3), stride=(1, 1), padding=(1, 1))\\n        (time_emb_proj): Linear(in_features=128, out_features=64, bias=True)\\n        (norm2): GroupNorm(32, 64, eps=1e-05, affine=True)\\n        (dropout): Dropout(p=0.0, inplace=False)\\n        (conv2): Conv2d(64, 64, kernel_size=(3, 3), stride=(1, 1), padding=(1, 1))\\n        (nonlinearity): SiLU()\\n      )\\n      (1): ResnetBlock2D(\\n        (norm1): GroupNorm(32, 64, eps=1e-05, affine=True)\\n        (conv1): Conv2d(64, 64, kernel_size=(3, 3), stride=(1, 1), padding=(1, 1))\\n        (time_emb_proj): Linear(in_features=128, out_features=64, bias=True)\\n        (norm2): GroupNorm(32, 64, eps=1e-05, affine=True)\\n        (dropout): Dropout(p=0.0, inplace=False)\\n        (conv2): Conv2d(64, 64, kernel_size=(3, 3), stride=(1, 1), padding=(1, 1))\\n        (nonlinearity): SiLU()\\n      )\\n    )\\n  )\\n  (conv_norm_out): GroupNorm(32, 32, eps=1e-05, affine=True)\\n  (conv_act): SiLU()\\n  (conv_out): Conv2d(32, 1, kernel_size=(3, 3), stride=(1, 1), padding=(1, 1))\\n)\\n\\n```\\n\\n正如你所看到的，还有更多！它比我们的 BasicUNet 有多得多的参数量：\\n\\n```\\nsum([p.numel() for p in model.parameters()]) # 1.7M vs the ~309k parameters of the BasicUNet\\n\\n```\\n```\\n1707009\\n\\n```\\n\\n我们可以用这个模型代替原来的模型来重复一遍上面展示的训练过程。我们需要将 x 和 timestep 传递给模型（这里我会传递 t = 0，以表明它在没有 timestep 条件的情况下工作，并保持采样代码简单，但您也可以尝试输入 `(amount*1000)`，使 timestep 
…
